…
               batch_size: 50                            
            choose_best_k: False                         
                   epochs: 150                           	[default: 100]
                     file: Data/imputed_SweatBinary.csv  	[default: ../Data/imputed_SweatBinary.csv]
                  gpu_ids: 0                             
                        k: 3                             
                  num_obs: 100                           
                 set_seed: 1                             
----------------- End -------------------
https://app.neptune.ai/jaysivakumar/VAE-MTD/e/VAEM1-2
Encoder(
  (seq): Sequential(
    (0): Linear(in_features=23, out_features=128, bias=True)
    (1): ReLU()
    (2): Linear(in_features=128, out_features=128, bias=True)
    (3): ReLU()
  )
  (fc1): Linear(in_features=128, out_features=128, bias=True)
  (fc2): Linear(in_features=128, out_features=128, bias=True)
)
Decoder(
  (seq): Sequential(
    (0): Linear(in_features=128, out_features=128, bias=True)
    (1): ReLU()
    (2): Linear(in_features=128, out_features=128, bias=True)
    (3): ReLU()
    (4): Linear(in_features=128, out_features=23, bias=True)
  )
)
Discriminator(
  (seq): Sequential(
    (0): Linear(in_features=23, out_features=128, bias=True)
    (1): LeakyReLU(negative_slope=0.2)
    (2): Dropout(p=0.5, inplace=False)
    (3): Linear(in_features=128, out_features=128, bias=True)
    (4): LeakyReLU(negative_slope=0.2)
    (5): Dropout(p=0.5, inplace=False)
    (6): Linear(in_features=128, out_features=1, bias=True)
  )
)
Epoch 1, Loss G:  4.3882, Loss D: -2.9528
Epoch 2, Loss G:  3.9463, Loss D: -3.0119
Epoch 3, Loss G:  3.8398, Loss D: -3.1073
Epoch 4, Loss G:  3.6465, Loss D: -2.9891
Epoch 5, Loss G:  3.4939, Loss D: -2.9717
Epoch 6, Loss G:  3.4243, Loss D: -3.0834
Epoch 7, Loss G:  3.4527, Loss D: -3.0571
Epoch 8, Loss G:  3.2333, Loss D: -2.8834
Epoch 9, Loss G:  3.4784, Loss D: -2.8424
…
